assets/models/ultraface.tflite (tflite, 455992 bytes, 106 tensors)

arith.constant2 f4 [1, 4420, 2]
000000 cd cc 4c 3c 89 88 88 3c cd cc 4c 3c 89 88 88 3c
       0.0125 0.016666668 0.0125 0.016666668
000010 cd cc 4c 3c 89 88 88 3c 9a 99 19 3d 89 88 88 3c
       0.0125 0.016666668 0.0375 0.016666668
000020 9a 99 19 3d 89 88 88 3c 9a 99 19 3d 89 88 88 3c
       0.0375 0.016666668 0.0375 0.016666668
000030 00 00 80 3d 89 88 88 3c 00 00 80 3d 89 88 88 3c
       0.0625 0.016666668 0.0625 0.016666668
000040 00 00 80 3d 89 88 88 3c 33 33 b3 3d 89 88 88 3c
       0.0625 0.016666668 0.0875 0.016666668
000050 33 33 b3 3d 89 88 88 3c 33 33 b3 3d 89 88 88 3c
       0.0875 0.016666668 0.0875 0.016666668
000060 66 66 e6 3d 89 88 88 3c 66 66 e6 3d 89 88 88 3c
       0.1125 0.016666668 0.1125 0.016666668
000070 66 66 e6 3d 89 88 88 3c cd cc 0c 3e 89 88 88 3c
       0.1125 0.016666668 0.1375 0.016666668
000080 cd cc 0c 3e 89 88 88 3c cd cc 0c 3e 89 88 88 3c
       0.1375 0.016666668 0.1375 0.016666668
000090 66 66 26 3e 89 88 88 3c 66 66 26 3e 89 88 88 3c
       0.1625 0.016666668 0.1625 0.016666668
0000a0 66 66 26 3e 89 88 88 3c 00 00 40 3e 89 88 88 3c
       0.1625 0.016666668 0.1875 0.016666668
0000b0 00 00 40 3e 89 88 88 3c 00 00 40 3e 89 88 88 3c
       0.1875 0.016666668 0.1875 0.016666668
0000c0 9a 99 59 3e 89 88 88 3c 9a 99 59 3e 89 88 88 3c
       0.2125 0.016666668 0.2125 0.016666668
0000d0 9a 99 59 3e 89 88 88 3c 33 33 73 3e 89 88 88 3c
       0.2125 0.016666668 0.2375 0.016666668
0000e0 33 33 73 3e 89 88 88 3c 33 33 73 3e 89 88 88 3c
       0.2375 0.016666668 0.2375 0.016666668
0000f0 66 66 86 3e 89 88 88 3c 66 66 86 3e 89 88 88 3c
       0.2625 0.016666668 0.2625 0.016666668
000100 66 66 86 3e 89 88 88 3c 33 33 93 3e 89 88 88 3c
       0.2625 0.016666668 0.2875 0.016666668
000110 33 33 93 3e 89 88 88 3c 33 33 93 3e 89 88 88 3c
       0.2875 0.016666668 0.2875 0.016666668
000120 00 00 a0 3e 89 88 88 3c 00 00 a0 3e 89 88 88 3c
       0.3125 0.016666668 0.3125 0.016666668
000130 00 00 a0 3e 89 88 88 3c cd cc ac 3e 89 88 88 3c
       0.3125 0.016666668 0.3375 0.016666668
000140 cd cc ac 3e 89 88 88 3c cd cc ac 3e 89 88 88 3c
       0.3375 0.016666668 0.3375 0.016666668
000150 9a 99 b9 3e 89 88 88 3c 9a 99 b9 3e 89 88 88 3c
       0.3625 0.016666668 0.3625 0.016666668
000160 9a 99 b9 3e 89 88 88 3c 66 66 c6 3e 89 88 88 3c
       0.3625 0.016666668 0.3875 0.016666668
000170 66 66 c6 3e 89 88 88 3c 66 66 c6 3e 89 88 88 3c
       0.3875 0.016666668 0.3875 0.016666668
000180 33 33 d3 3e 89 88 88 3c 33 33 d3 3e 89 88 88 3c
       0.4125 0.016666668 0.4125 0.016666668
000190 33 33 d3 3e 89 88 88 3c 00 00 e0 3e 89 88 88 3c
       0.4125 0.016666668 0.4375 0.016666668
0001a0 00 00 e0 3e 89 88 88 3c 00 00 e0 3e 89 88 88 3c
       0.4375 0.016666668 0.4375 0.016666668
0001b0 cd cc ec 3e 89 88 88 3c cd cc ec 3e 89 88 88 3c
       0.4625 0.016666668 0.4625 0.016666668
0001c0 cd cc ec 3e 89 88 88 3c 9a 99 f9 3e 89 88 88 3c
       0.4625 0.016666668 0.4875 0.016666668
0001d0 9a 99 f9 3e 89 88 88 3c 9a 99 f9 3e 89 88 88 3c
       0.4875 0.016666668 0.4875 0.016666668
0001e0 33 33 03 3f 89 88 88 3c 33 33 03 3f 89 88 88 3c
       0.5125 0.016666668 0.5125 0.016666668
0001f0 33 33 03 3f 89 88 88 3c 9a 99 09 3f 89 88 88 3c
       0.5125 0.016666668 0.5375 0.016666668
000200 9a 99 09 3f 89 88 88 3c 9a 99 09 3f 89 88 88 3c
       0.5375 0.016666668 0.5375 0.016666668
000210 00 00 10 3f 89 88 88 3c 00 00 10 3f 89 88 88 3c
       0.5625 0.016666668 0.5625 0.016666668
000220 00 00 10 3f 89 88 88 3c 66 66 16 3f 89 88 88 3c
       0.5625 0.016666668 0.5875 0.016666668
000230 66 66 16 3f 89 88 88 3c 66 66 16 3f 89 88 88 3c
       0.5875 0.016666668 0.5875 0.016666668
000240 cd cc 1c 3f 89 88 88 3c cd cc 1c 3f 89 88 88 3c
       0.6125 0.016666668 0.6125 0.016666668
000250 cd cc 1c 3f 89 88 88 3c 33 33 23 3f 89 88 88 3c
       0.6125 0.016666668 0.6375 0.016666668
000260 33 33 23 3f 89 88 88 3c 33 33 23 3f 89 88 88 3c
       0.6375 0.016666668 0.6375 0.016666668
000270 9a 99 29 3f 89 88 88 3c 9a 99 29 3f 89 88 88 3c
       0.6625 0.016666668 0.6625 0.016666668
000280 9a 99 29 3f 89 88 88 3c 00 00 30 3f 89 88 88 3c
       0.6625 0.016666668 0.6875 0.016666668
000290 00 00 30 3f 89 88 88 3c 00 00 30 3f 89 88 88 3c
       0.6875 0.016666668 0.6875 0.016666668
0002a0 66 66 36 3f 89 88 88 3c 66 66 36 3f 89 88 88 3c
       0.7125 0.016666668 0.7125 0.016666668
0002b0 66 66 36 3f 89 88 88 3c cd cc 3c 3f 89 88 88 3c
       0.7125 0.016666668 0.7375 0.016666668
0002c0 cd cc 3c 3f 89 88 88 3c cd cc 3c 3f 89 88 88 3c
       0.7375 0.016666668 0.7375 0.016666668
0002d0 33 33 43 3f 89 88 88 3c 33 33 43 3f 89 88 88 3c
       0.7625 0.016666668 0.7625 0.016666668
0002e0 33 33 43 3f 89 88 88 3c 9a 99 49 3f 89 88 88 3c
       0.7625 0.016666668 0.7875 0.016666668
0002f0 9a 99 49 3f 89 88 88 3c 9a 99 49 3f 89 88 88 3c
       0.7875 0.016666668 0.7875 0.016666668
000300 00 00 50 3f 89 88 88 3c 00 00 50 3f 89 88 88 3c
       0.8125 0.016666668 0.8125 0.016666668
000310 00 00 50 3f 89 88 88 3c 66 66 56 3f 89 88 88 3c
       0.8125 0.016666668 0.8375 0.016666668
000320 66 66 56 3f 89 88 88 3c 66 66 56 3f 89 88 88 3c
       0.8375 0.016666668 0.8375 0.016666668
000330 cd cc 5c 3f 89 88 88 3c cd cc 5c 3f 89 88 88 3c
       0.8625 0.016666668 0.8625 0.016666668
000340 cd cc 5c 3f 89 88 88 3c 33 33 63 3f 89 88 88 3c
       0.8625 0.016666668 0.8875 0.016666668
000350 33 33 63 3f 89 88 88 3c 33 33 63 3f 89 88 88 3c
       0.8875 0.016666668 0.8875 0.016666668
000360 9a 99 69 3f 89 88 88 3c 9a 99 69 3f 89 88 88 3c
       0.9125 0.016666668 0.9125 0.016666668
000370 9a 99 69 3f 89 88 88 3c 00 00 70 3f 89 88 88 3c
       0.9125 0.016666668 0.9375 0.016666668
000380 00 00 70 3f 89 88 88 3c 00 00 70 3f 89 88 88 3c
       0.9375 0.016666668 0.9375 0.016666668
000390 66 66 76 3f 89 88 88 3c 66 66 76 3f 89 88 88 3c
       0.9625 0.016666668 0.9625 0.016666668
0003a0 66 66 76 3f 89 88 88 3c cd cc 7c 3f 89 88 88 3c
       0.9625 0.016666668 0.9875 0.016666668
0003b0 cd cc 7c 3f 89 88 88 3c cd cc 7c 3f 89 88 88 3c
       0.9875 0.016666668 0.9875 0.016666668
0003c0 cd cc 4c 3c cd cc 4c 3d cd cc 4c 3c cd cc 4c 3d
       0.0125 0.05 0.0125 0.05
0003d0 cd cc 4c 3c cd cc 4c 3d 9a 99 19 3d cd cc 4c 3d
       0.0125 0.05 0.0375 0.05
0003e0 9a 99 19 3d cd cc 4c 3d 9a 99 19 3d cd cc 4c 3d
       0.0375 0.05 0.0375 0.05
0003f0 00 00 80 3d cd cc 4c 3d 00 00 80 3d cd cc 4c 3d
       0.0625 0.05 0.0625 0.05

arith.constant3 f4 [1, 4420, 2]
000000 00 00 00 3d ab aa 2a 3d cd cc 4c 3d 89 88 88 3d
       0.03125 0.041666668 0.05 0.06666667
000010 9a 99 99 3d cd cc cc 3d 00 00 00 3d ab aa 2a 3d
       0.075 0.1 0.03125 0.041666668
000020 cd cc 4c 3d 89 88 88 3d 9a 99 99 3d cd cc cc 3d
       0.05 0.06666667 0.075 0.1
000030 00 00 00 3d ab aa 2a 3d cd cc 4c 3d 89 88 88 3d
       0.03125 0.041666668 0.05 0.06666667
000040 9a 99 99 3d cd cc cc 3d 00 00 00 3d ab aa 2a 3d
       0.075 0.1 0.03125 0.041666668
000050 cd cc 4c 3d 89 88 88 3d 9a 99 99 3d cd cc cc 3d
       0.05 0.06666667 0.075 0.1
000060 00 00 00 3d ab aa 2a 3d cd cc 4c 3d 89 88 88 3d
       0.03125 0.041666668 0.05 0.06666667
000070 9a 99 99 3d cd cc cc 3d 00 00 00 3d ab aa 2a 3d
       0.075 0.1 0.03125 0.041666668
000080 cd cc 4c 3d 89 88 88 3d 9a 99 99 3d cd cc cc 3d
       0.05 0.06666667 0.075 0.1
000090 00 00 00 3d ab aa 2a 3d cd cc 4c 3d 89 88 88 3d
       0.03125 0.041666668 0.05 0.06666667
0000a0 9a 99 99 3d cd cc cc 3d 00 00 00 3d ab aa 2a 3d
       0.075 0.1 0.03125 0.041666668
0000b0 cd cc 4c 3d 89 88 88 3d 9a 99 99 3d cd cc cc 3d
       0.05 0.06666667 0.075 0.1
0000c0 00 00 00 3d ab aa 2a 3d cd cc 4c 3d 89 88 88 3d
       0.03125 0.041666668 0.05 0.06666667
0000d0 9a 99 99 3d cd cc cc 3d 00 00 00 3d ab aa 2a 3d
       0.075 0.1 0.03125 0.041666668
0000e0 cd cc 4c 3d 89 88 88 3d 9a 99 99 3d cd cc cc 3d
       0.05 0.06666667 0.075 0.1
0000f0 00 00 00 3d ab aa 2a 3d cd cc 4c 3d 89 88 88 3d
       0.03125 0.041666668 0.05 0.06666667
000100 9a 99 99 3d cd cc cc 3d 00 00 00 3d ab aa 2a 3d
       0.075 0.1 0.03125 0.041666668
000110 cd cc 4c 3d 89 88 88 3d 9a 99 99 3d cd cc cc 3d
       0.05 0.06666667 0.075 0.1
000120 00 00 00 3d ab aa 2a 3d cd cc 4c 3d 89 88 88 3d
       0.03125 0.041666668 0.05 0.06666667
000130 9a 99 99 3d cd cc cc 3d 00 00 00 3d ab aa 2a 3d
       0.075 0.1 0.03125 0.041666668
000140 cd cc 4c 3d 89 88 88 3d 9a 99 99 3d cd cc cc 3d
       0.05 0.06666667 0.075 0.1
000150 00 00 00 3d ab aa 2a 3d cd cc 4c 3d 89 88 88 3d
       0.03125 0.041666668 0.05 0.06666667
000160 9a 99 99 3d cd cc cc 3d 00 00 00 3d ab aa 2a 3d
       0.075 0.1 0.03125 0.041666668
000170 cd cc 4c 3d 89 88 88 3d 9a 99 99 3d cd cc cc 3d
       0.05 0.06666667 0.075 0.1
000180 00 00 00 3d ab aa 2a 3d cd cc 4c 3d 89 88 88 3d
       0.03125 0.041666668 0.05 0.06666667
000190 9a 99 99 3d cd cc cc 3d 00 00 00 3d ab aa 2a 3d
       0.075 0.1 0.03125 0.041666668
0001a0 cd cc 4c 3d 89 88 88 3d 9a 99 99 3d cd cc cc 3d
       0.05 0.06666667 0.075 0.1
0001b0 00 00 00 3d ab aa 2a 3d cd cc 4c 3d 89 88 88 3d
       0.03125 0.041666668 0.05 0.06666667
0001c0 9a 99 99 3d cd cc cc 3d 00 00 00 3d ab aa 2a 3d
       0.075 0.1 0.03125 0.041666668
0001d0 cd cc 4c 3d 89 88 88 3d 9a 99 99 3d cd cc cc 3d
       0.05 0.06666667 0.075 0.1
0001e0 00 00 00 3d ab aa 2a 3d cd cc 4c 3d 89 88 88 3d
       0.03125 0.041666668 0.05 0.06666667
0001f0 9a 99 99 3d cd cc cc 3d 00 00 00 3d ab aa 2a 3d
       0.075 0.1 0.03125 0.041666668
000200 cd cc 4c 3d 89 88 88 3d 9a 99 99 3d cd cc cc 3d
       0.05 0.06666667 0.075 0.1
000210 00 00 00 3d ab aa 2a 3d cd cc 4c 3d 89 88 88 3d
       0.03125 0.041666668 0.05 0.06666667
000220 9a 99 99 3d cd cc cc 3d 00 00 00 3d ab aa 2a 3d
       0.075 0.1 0.03125 0.041666668
000230 cd cc 4c 3d 89 88 88 3d 9a 99 99 3d cd cc cc 3d
       0.05 0.06666667 0.075 0.1
000240 00 00 00 3d ab aa 2a 3d cd cc 4c 3d 89 88 88 3d
       0.03125 0.041666668 0.05 0.06666667
000250 9a 99 99 3d cd cc cc 3d 00 00 00 3d ab aa 2a 3d
       0.075 0.1 0.03125 0.041666668
000260 cd cc 4c 3d 89 88 88 3d 9a 99 99 3d cd cc cc 3d
       0.05 0.06666667 0.075 0.1
000270 00 00 00 3d ab aa 2a 3d cd cc 4c 3d 89 88 88 3d
       0.03125 0.041666668 0.05 0.06666667
000280 9a 99 99 3d cd cc cc 3d 00 00 00 3d ab aa 2a 3d
       0.075 0.1 0.03125 0.041666668
000290 cd cc 4c 3d 89 88 88 3d 9a 99 99 3d cd cc cc 3d
       0.05 0.06666667 0.075 0.1
0002a0 00 00 00 3d ab aa 2a 3d cd cc 4c 3d 89 88 88 3d
       0.03125 0.041666668 0.05 0.06666667
0002b0 9a 99 99 3d cd cc cc 3d 00 00 00 3d ab aa 2a 3d
       0.075 0.1 0.03125 0.041666668
0002c0 cd cc 4c 3d 89 88 88 3d 9a 99 99 3d cd cc cc 3d
       0.05 0.06666667 0.075 0.1
0002d0 00 00 00 3d ab aa 2a 3d cd cc 4c 3d 89 88 88 3d
       0.03125 0.041666668 0.05 0.06666667
0002e0 9a 99 99 3d cd cc cc 3d 00 00 00 3d ab aa 2a 3d
       0.075 0.1 0.03125 0.041666668
0002f0 cd cc 4c 3d 89 88 88 3d 9a 99 99 3d cd cc cc 3d
       0.05 0.06666667 0.075 0.1
000300 00 00 00 3d ab aa 2a 3d cd cc 4c 3d 89 88 88 3d
       0.03125 0.041666668 0.05 0.06666667
000310 9a 99 99 3d cd cc cc 3d 00 00 00 3d ab aa 2a 3d
       0.075 0.1 0.03125 0.041666668
000320 cd cc 4c 3d 89 88 88 3d 9a 99 99 3d cd cc cc 3d
       0.05 0.06666667 0.075 0.1
000330 00 00 00 3d ab aa 2a 3d cd cc 4c 3d 89 88 88 3d
       0.03125 0.041666668 0.05 0.06666667
000340 9a 99 99 3d cd cc cc 3d 00 00 00 3d ab aa 2a 3d
       0.075 0.1 0.03125 0.041666668
000350 cd cc 4c 3d 89 88 88 3d 9a 99 99 3d cd cc cc 3d
       0.05 0.06666667 0.075 0.1
000360 00 00 00 3d ab aa 2a 3d cd cc 4c 3d 89 88 88 3d
       0.03125 0.041666668 0.05 0.06666667
000370 9a 99 99 3d cd cc cc 3d 00 00 00 3d ab aa 2a 3d
       0.075 0.1 0.03125 0.041666668
000380 cd cc 4c 3d 89 88 88 3d 9a 99 99 3d cd cc cc 3d
       0.05 0.06666667 0.075 0.1
000390 00 00 00 3d ab aa 2a 3d cd cc 4c 3d 89 88 88 3d
       0.03125 0.041666668 0.05 0.06666667
0003a0 9a 99 99 3d cd cc cc 3d 00 00 00 3d ab aa 2a 3d
       0.075 0.1 0.03125 0.041666668
0003b0 cd cc 4c 3d 89 88 88 3d 9a 99 99 3d cd cc cc 3d
       0.05 0.06666667 0.075 0.1
0003c0 00 00 00 3d ab aa 2a 3d cd cc 4c 3d 89 88 88 3d
       0.03125 0.041666668 0.05 0.06666667
0003d0 9a 99 99 3d cd cc cc 3d 00 00 00 3d ab aa 2a 3d
       0.075 0.1 0.03125 0.041666668
0003e0 cd cc 4c 3d 89 88 88 3d 9a 99 99 3d cd cc cc 3d
       0.05 0.06666667 0.075 0.1
0003f0 00 00 00 3d ab aa 2a 3d cd cc 4c 3d 89 88 88 3d
       0.03125 0.041666668 0.05 0.06666667

arith.constant11 f4 [1, 3, 3, 64]
000000 8f 19 20 bd 93 45 86 3a a5 2f d9 bc 4a 4c e8 bc
       -0.039086875 0.0010244123 -0.026511976 -0.02835669
000010 70 5b d6 bd 2c 1f f7 bc 9f 19 9c 3d 7f 0b 07 3c
       -0.10466659 -0.030166231 0.07622074 0.008242487
000020 4a 9b 27 3e d9 18 3b bd e7 a4 03 3c 99 64 ad bc
       0.16367832 -0.045677993 0.008034921 -0.021166133
000030 ef 35 3c bd b1 fe 15 bd fe 73 82 bc 32 85 9d bc
       -0.045949873 -0.036619846 -0.01592445 -0.019228552
000040 16 95 9e 3c 42 05 68 3e 71 3f e1 bb 26 e2 20 bd
       0.0193582 0.22658256 -0.006874018 -0.039278172
000050 d9 ba 50 bc 96 d9 41 3e 14 83 82 3c 16 d9 69 bc
       -0.01273986 0.18930659 0.015931644 -0.014272949
000060 67 d4 53 bc 2d 70 d6 bb cc 93 0b 3d f8 fd 00 bd
       -0.012929059 -0.006544134 0.034076497 -0.031492203
000070 47 1b dc ba 0a ee 8a bc b9 01 b1 3c 1c a9 05 be
       -0.0016792797 -0.016959209 0.021607267 -0.13052791
000080 48 49 bc 3b a6 8d 08 3d 6d 85 15 bc 9b ed 7a bc
       0.0057460405 0.03333821 -0.0091260495 -0.015315439
000090 93 ec 76 bd b4 f3 50 b8 84 c4 86 3d 7a f7 5b bd
       -0.06028421 -4.981803e-05 0.06580451 -0.05370281
0000a0 d6 38 4b bd 80 ed 45 3c 87 db 0c bc 7d 5e 2e 3d
       -0.04961475 0.01208055 -0.008597261 0.04257058
0000b0 57 63 8d bc 1e 5d 10 bd 53 76 1f 3d 8f 2d a4 bd
       -0.017259283 -0.035245053 0.038931202 -0.08016502
0000c0 17 69 1d 3d 3d ff c1 bc 64 bf 4b bd 97 7d 14 3b
       0.0384303 -0.023681277 -0.04974307 0.0022657865
0000d0 48 ea a7 ba 8e 9f 30 3e 70 b6 e3 3d 4a 5b 4d 3d
       -0.001281091 0.17248365 0.111187816 0.05013589
0000e0 d3 e2 d7 3c 59 9a 43 3d fa 8f 66 3b ba d6 49 bd
       0.026353275 0.04775462 0.0035181032 -0.049277045
0000f0 af 8a 78 3d 38 d6 37 be 94 eb f2 3b 1c 5d fc 3c
       0.060679134 -0.17952812 0.007413337 0.030806117
000100 cb 6a d1 3d 27 c8 e5 bc 20 0e 45 3e 90 77 5f bd
       0.10225447 -0.028049542 0.1924367 -0.054557383
000110 fa 25 12 bd fa c1 b5 bd a4 73 9d 3d 8e 9a 70 bb
       -0.03568075 -0.08874889 0.07688072 -0.0036713216
000120 e9 05 25 3e e2 c6 ac bc 48 fd 16 bb ea 81 cf bd
       0.16115536 -0.021090928 -0.002303915 -0.10132201
000130 56 87 be bd bb 34 a1 3d 4f 53 07 3c 82 1e 89 bc
       -0.09303157 0.07871386 0.008259608 -0.01673818
000140 12 24 fb 3c da 90 79 3e 65 b8 7b bc 25 9b 12 be
       0.030656848 0.24371663 -0.015363787 -0.14316995
000150 4f 5c ac bc a7 f5 7b 3e fe ea 2e 3d ee cd d6 bc
       -0.02104011 0.24605428 0.042704575 -0.026221242
000160 de a1 ba 3c 08 59 23 bc db 9b d9 3d 6a fd 48 3c
       0.022782262 -0.009969957 0.1062543 0.01226745
000170 cb f9 03 bc 85 2b 6b bd 99 87 1b 3d 9f 0a c8 bd
       -0.008055161 -0.05741455 0.037971113 -0.09767651
000180 b9 43 11 3e 51 c4 89 3d f8 ca 87 3c 55 38 45 bd
       0.1418599 0.067268975 0.016576275 -0.048149426
000190 ad bf b5 bd bd 2b d9 3a 6f d6 97 bb 5e 3c fa bb
       -0.0887445 0.0016568821 -0.004633717 -0.007636591
0001a0 49 bd 2b bd 4b 67 1d bc 61 58 88 bc 39 9b 82 3d
       -0.041928563 -0.0096071465 -0.016643705 0.063772626
0001b0 2d dc 0f 3c 62 de 31 bc fa f4 f3 3c 64 ed 0b bd
       0.008780521 -0.010856243 0.0297799 -0.03416194
0001c0 cc 4d 87 3b 77 40 98 3d 3e af f9 bc 39 a8 6a bc
       0.004129147 0.07434171 -0.03047907 -0.014322334
0001d0 48 9c a9 3c 81 83 4c 3f 12 ee 99 3c e2 2a 38 3d
       0.020704404 0.7988816 0.018790279 0.04496277
0001e0 77 02 9c 3c e0 91 7b 3c ea 58 29 3d 7c 15 9c bc
       0.019044144 0.0153546035 0.04134456 -0.019053213
0001f0 10 93 8d 3d b3 a2 20 bd 32 3e 9e 3d 8f 37 13 bd
       0.069128156 -0.039217662 0.077267066 -0.035941657
000200 42 72 01 bd 98 03 9a bb 9a 06 17 3d c7 d0 b5 bc
       -0.031603105 -0.0047001354 0.03687153 -0.02219428
000210 fd 17 bc bd a1 c5 53 bd 4b c0 95 3d 63 99 41 bc
       -0.09184263 -0.051702145 0.073120676 -0.011816355
000220 f2 d0 2b 3e bd 39 00 bd b8 2e 29 3d f3 35 34 bc
       0.16778925 -0.031305064 0.04130432 -0.010999191
000230 8c 2d b6 bc a7 ac 06 bd 52 f3 28 ba 41 3c 86 bc
       -0.022238515 -0.032879498 -0.0006444949 -0.016386153
000240 34 d7 97 3c 2c ae c0 3d 48 f0 63 bc e0 f5 2e bd
       0.018535234 0.09408221 -0.013912268 -0.042714953
000250 e5 cd 73 bc f8 bf 2f 3e 57 c9 33 3c 72 f2 6b bd
       -0.014880632 0.17163074 0.010973296 -0.05760426
000260 a2 46 5a bb 49 09 26 bc 08 51 2d bd e8 73 6f bc
       -0.003330626 -0.01013405 -0.042313606 -0.014615037
000270 f4 8b 72 bc 21 05 89 bc 96 2a 05 3d ae 36 ea bd
       -0.014803875 -0.016726078 0.032511316 -0.114362106
000280 c2 81 fa 3c ce 1e ce 3c 5a f5 cd 3b 5a f1 18 bd
       0.030579451 0.025161173 0.0062853517 -0.037339546
000290 1c a9 9f 3c 90 90 db bb 5e b7 9e 3d f2 10 0c 3c
       0.019489817 -0.006700583 0.07749818 0.008548962
0002a0 60 f1 7e bd f9 64 3a 3d a0 d3 8d 3a b1 13 82 3d
       -0.062241912 0.04550645 0.0010820515 0.06351412
0002b0 43 e8 2a bc e2 27 dc 3c 82 31 2e 3d 14 c4 ce bd
       -0.010431352 0.026874486 0.042527683 -0.10095993
0002c0 cb e0 80 3d 35 fb 2b 3d 0a 29 da bc 30 40 53 bd
       0.06292876 0.041987617 -0.026630897 -0.051574886
0002d0 10 66 85 3c a8 c7 40 3e e8 dc 17 3c 8a 83 0e bd
       0.016284019 0.18826163 0.009268977 -0.034793414
0002e0 90 0b 38 3c f2 40 fa 3d 69 0b 1d bd a1 f1 15 bd
       0.011233225 0.122194186 -0.03834096 -0.03660739
0002f0 63 e9 51 3d 87 98 49 be 21 5f ef bb 0a 57 82 3d
       0.051247966 -0.19687091 -0.0073050414 0.06364258
000300 6f 61 d6 3c b6 72 88 bc b0 fd 10 3e ad c6 6b bd
       0.026169507 -0.016656261 0.14159274 -0.05756252
000310 44 61 5c bd a7 c5 9e bd 11 48 a3 3d 0e 3d 57 bc
       -0.053803697 -0.07752543 0.0797273 -0.013137115
000320 1d 95 28 3e ea b3 a0 bd ad 8e 27 bd 3c b2 67 3d
       0.16463132 -0.07846816 -0.04090755 0.056566462
000330 05 80 29 bd dd 44 6f bd 3c f6 1c bc bc f9 78 ba
       -0.041381855 -0.058415283 -0.009580191 -0.00094976625
000340 66 5a 6c bd 22 6c 23 3e 0e fa ff 3b 16 91 86 ba
       -0.0577034 0.15959218 0.0078117913 -0.0010266628
000350 dd e9 01 bd 5c 15 43 3e 86 d7 98 3d cb da b7 3d
       -0.03171717 0.19051117 0.07462983 0.08977278
000360 0c 8c c6 3b b0 ba c8 bc 72 53 f2 3c b1 44 88 3c
       0.0060591754 -0.024503082 0.029580805 0.016634317
000370 b1 e7 ac bc 7e 4d db bc 61 c0 82 3d 58 81 cd bd
       -0.021106573 -0.02677035 0.063843496 -0.10034436
000380 37 dc 52 bc b1 51 c3 3c 14 cd c7 3c 68 e3 0a bc
       -0.012869886 0.023842664 0.024389781 -0.008477069
000390 bc 3f fc bd 90 7d 3e bc 08 50 d3 3c dc 14 24 bd
       -0.12316844 -0.011626616 0.025794998 -0.040058956
0003a0 35 51 a9 bd 20 40 21 bc ca 3c 1e 3c a5 a4 1a 3d
       -0.08267442 -0.009841949 0.009658048 0.037754674
0003b0 f3 93 9f bc 2b 87 92 bd b9 84 c9 3d 7c b2 a1 bd
       -0.019479727 -0.071546875 0.09839768 -0.07895371
0003c0 d4 4b 99 3c 2a de da 39 d1 13 91 bd 6e 4c c7 3c
       0.018712915 0.00041745725 -0.07083858 0.024328437
0003d0 7e 16 37 3d 93 b5 ba 3d 73 ae 7f 3d 97 a6 63 3d
       0.044699185 0.09116664 0.062422227 0.055578794
0003e0 4b 16 fd bb 2e 98 5c 3d 1f b5 64 bc c8 52 6c 3b
       -0.007723605 0.053856067 -0.013959198 0.0036060084
0003f0 8f f8 cf bc 1d 4d d6 be 2b 9b 7a bb aa 4e 29 bd
       -0.025387077 -0.41855708 -0.003823946 -0.041334786

arith.constant12 f4 [6, 1, 1, 64]
000000 8e 5b 81 bd 35 b9 83 bd 72 81 45 be f7 32 81 3e
       -0.06316291 -0.0643181 -0.1928766 0.25234196
000010 93 7a 64 bc 9f 07 a5 bd 03 67 6d 3e 7d d9 78 3b
       -0.01394524 -0.08058094 0.23183827 0.003797143
000020 0a 9b 8c 3e 6c 19 aa 3d 77 2c 3e bd ee 71 b5 3d
       0.27462035 0.0830563 -0.046429124 0.08859621
000030 7f 04 e4 bd f3 84 97 3d c7 08 5a be 94 4b 43 3c
       -0.1113367 0.07398405 -0.21292411 0.011919875
000040 d1 60 b7 3d 1a c9 fc bd f7 1d 05 bb da 84 3b 3d
       0.08954013 -0.123430446 -0.002031205 0.045780994
000050 c0 b7 60 bc 01 fb b5 3c 9b 6c 02 3e f4 db e0 bb
       -0.013715684 0.022214415 0.12736742 -0.006862158
000060 a0 10 82 ba 64 4d cd 3b 9e 98 1f 3c 65 15 b9 3d
       -0.0009923168 0.006265329 0.009740977 0.09037284
000070 6b 13 1b 3c 97 dc a0 3c f1 b8 a0 3d 11 a2 8c 3e
       0.009465079 0.019636435 0.07847775 0.27467397
000080 a4 2e 21 3d 7a 00 b3 bc 22 ee 11 3c 74 6a 43 bc
       0.03935112 -0.021850813 0.008906873 -0.011927236
000090 e6 35 fe 3a 20 c8 d6 bb 36 08 dc 3d f4 b0 41 3d
       0.0019394725 -0.0065546185 0.107437536 0.047287896
0000a0 fb 09 cd bd 61 61 75 bd 3b a6 3b 3c 06 56 17 bf
       -0.10011669 -0.05990732 0.011453207 -0.59115636
0000b0 0c fd ef 3a 51 ce 5b 3d 81 35 f6 3d ca f2 04 3e
       0.0018309667 0.053663556 0.12021924 0.12983242
0000c0 f1 e1 2e bd 82 ba 73 bc e1 33 61 bd 38 8a 81 3d
       -0.042695943 -0.01487601 -0.054981116 0.06325191
0000d0 a4 b7 16 3d 06 5d 2b 3e d2 62 ab 3c c1 15 a1 3d
       0.036796227 0.16734704 0.020921145 0.07865477
0000e0 f4 88 8b bc 78 83 30 bd 98 ea 2f 3d 81 34 35 bd
       -0.017033078 -0.04309413 0.042948335 -0.044239525
0000f0 4b 52 56 3b 54 16 16 bf d4 7f 60 bd 80 9b 4c bb
       0.003270286 -0.5862782 -0.054809406 -0.0031220615
000100 02 dc 91 3d 2c ef 56 3d 08 5e 37 3e db 7f 83 be
       0.07122041 0.052474186 0.17906964 -0.25683483
000110 07 8c 08 3c c1 5a 95 3d af 30 6e be c0 4f 8e bb
       0.008334166 0.072927006 -0.23260759 -0.004343003
000120 e4 d7 8d be 72 32 c4 bd ab 3e 4f 3d 9f 74 9a bd
       -0.27703774 -0.09579934 0.050596874 -0.07541775
000130 f5 b6 d0 3d 20 56 a5 bd 48 91 52 3e 42 63 18 ba
       0.10191146 -0.08073068 0.20563233 -0.00058131304
000140 28 26 a5 bd 53 8f 00 3e ea 38 67 3b 78 32 42 bd
       -0.08063918 0.12554674 0.0035281726 -0.047411412
000150 5c 02 dc 3b f9 64 7e bc 2b 5c eb bd 6f 66 f9 3b
       0.0067141484 -0.015527003 -0.11492189 0.007611088
000160 c4 31 0f ba 33 4d b3 ba f3 74 45 bc ba a5 d0 bd
       -0.0005462433 -0.0013679623 -0.012051809 -0.1018786
000170 aa e8 4f bc 61 4f ec bc d3 43 8e bd a4 86 8e be
       -0.012689749 -0.028846445 -0.0694653 -0.27837098
000180 1d 4f 37 bd 0f 06 78 3c b0 d2 cb ba ac a6 bb 3c
       -0.044753183 0.015138163 -0.0015550461 0.022906624
000190 bd 6a 6e ba 1c 4f 82 3c 4a 9c db bd 11 69 37 bd
       -0.0009094885 0.015906863 -0.10723169 -0.044777934
0001a0 c8 ca d4 3d 54 eb 93 3d 35 d6 27 bc 67 6c 18 3f
       0.1039024 0.0722262 -0.010243942 0.5954041
0001b0 6c 16 4f bb ac 84 2a bd 34 8d eb bd ea ac 08 be
       -0.0031599058 -0.041630432 -0.11501542 -0.13347211
0001c0 fe af 3a 3d e1 66 e7 3c 2a 84 50 3d 60 b7 87 bd
       0.045577995 0.028247299 0.05090729 -0.06626773
0001d0 b0 0c 0a bd c6 6d 2a be 60 ae d5 bc 6b 94 9d bd
       -0.033703506 -0.16643438 -0.026084125 -0.07694324
0001e0 61 b2 b3 3c 8c aa 3d 3d cb a9 55 bd 6b 1b 59 3d
       0.021935644 0.046305224 -0.05216388 0.053004663
0001f0 68 21 06 bc 2d 6c 16 3f 17 c1 34 3d eb 52 5c 3c
       -0.008186676 0.58758813 0.044129457 0.013447504
000200 4c 9b 2f bc c6 ec 32 bd c3 60 30 bf aa c4 fd 3d
       -0.010718178 -0.043682836 -0.68897647 0.12391026
000210 80 65 95 3d 14 43 06 3e 7e 0e 29 3e 12 b2 da 3c
       0.0729475 0.13111526 0.16509435 0.026696239
000220 0c 9e 6f 3e e4 be 8f 3d a0 87 19 3d 40 28 30 3d
       0.23400134 0.07018831 0.037482858 0.043007135
000230 17 89 03 bc 72 95 1e 3d 8b 0c e0 bd 5d de 45 3c
       -0.00802829 0.03871674 -0.109398924 0.012076941
000240 2c e4 c5 bd 78 0a 0c bf f4 ce f9 ba 8c b6 a7 bd
       -0.09662661 -0.54703474 -0.0019058869 -0.08189115
000250 50 4c 26 3d 10 8a 0a 3f a8 9a c4 3d 2f 04 65 bd
       0.04060012 0.54116917 0.09599811 -0.055912193
000260 38 36 27 bb d6 8a be bb 89 87 e3 3d 4f 9b 96 3d
       -0.0025514495 -0.0058148904 0.11109836 0.073538415
000270 ca 7e 6d 3c 53 27 01 bc ac d1 3e 3d 80 19 df 3d
       0.014495561 -0.007882911 0.046586677 0.108935356
000280 19 84 5b bd a8 ad 42 bd 8f bf 37 ba d0 40 15 be
       -0.053592775 -0.047528893 -0.00070094405 -0.14575505
000290 87 f1 2f bd 56 8a 92 3b cd 59 dc 3d f7 b8 dc 3c
       -0.042954948 0.0044720573 0.10759316 0.026943667
0002a0 e2 38 2e 3e 35 3c 71 bd 69 fe 66 3d 52 1d 74 3d
       0.17013887 -0.05889531 0.05639497 0.059598275
0002b0 b4 30 52 3a fb 24 71 3d 92 06 7d 3d 67 07 bf 3d
       0.00080181216 0.058873158 0.061773844 0.09327584
0002c0 8e c9 a6 3c 2f ad fa 3c 0f 8f 5c 3d 0e 30 3f 3d
       0.02035978 0.030600158 0.05384737 0.046676688
0002d0 cd ea a1 3d 4f 2c 1f be e3 97 95 bd fa 67 96 3d
       0.07906113 -0.15544246 -0.07304361 0.07344051
0002e0 0b 28 9c bd 53 02 ce bd cf c0 87 3d 04 23 dc 3d
       -0.07624825 -0.10059037 0.06628572 0.10748866
0002f0 ec 43 d9 3d d4 06 0a be 61 d6 35 bd 1a 47 f8 3c
       0.10608658 -0.13479167 -0.0443939 0.030307341
000300 1b 4b d4 3c 0e a9 3e 3d 02 f1 2f 3f 27 ce 00 be
       0.02591472 0.046547942 0.68727124 -0.12578641
000310 f4 98 7a bd 9f c3 05 be 55 46 2f be 6c c1 e7 bc
       -0.061181024 -0.13062905 -0.17116673 -0.028290473
000320 e4 1a 68 be 7e 72 86 bd c2 e0 bd bc 9c f0 07 bd
       -0.22666508 -0.065648064 -0.023178462 -0.033188447
000330 05 5f 8c 3c ab 0b 31 bd 72 95 de 3d 4e 5d a9 bc
       0.017135153 -0.043224018 0.10868348 -0.020674374
000340 9c 50 c7 3d d1 87 0d 3f 00 70 9d 3b c6 52 a8 3d
       0.09732172 0.55285364 0.004804611 0.08218913
000350 f1 f1 10 bd 3e 38 0b bf 69 8b b9 bd 01 5a 51 3d
       -0.035386983 -0.54382694 -0.090597935 0.051111225
000360 de 98 30 bb 79 ed 5d 3c 00 ca ed bd af 8d 9f bd
       -0.0026946585 0.013545387 -0.11610794 -0.07790696
000370 19 4e dc bb 6c 10 0b 3c b4 aa 3f bd 73 3e d1 bd
       -0.006723177 0.008487802 -0.046793655 -0.10216989
000380 a0 fb 39 3d 28 fb 53 3d ed a7 95 ba 18 26 13 3e
       0.045405984 0.051753193 -0.0011417844 0.1437
000390 22 5b 0d 3d 79 d8 fe bb 5b 5c d8 bd 0b cc 90 bc
       0.03451074 -0.0077772704 -0.105644904 -0.01767542
0003a0 e2 dc 2d be 73 be 35 3d 02 63 41 bd 23 47 6c bd
       -0.16978791 0.04437108 -0.04721356 -0.05768503
0003b0 8e 71 d6 ba be 4b 4d bd 80 2d 70 bd 16 66 bb bd
       -0.0016360746 -0.05012106 -0.058637142 -0.09150331
0003c0 ad 13 45 bc c9 6f 06 bd 02 31 8a bd 2f 76 69 bd
       -0.012028617 -0.03282145 -0.06747629 -0.056997474
0003d0 65 3e 99 bd 8a be 29 3e e2 30 9d 3d 0f 36 94 bd
       -0.07482604 0.16576591 0.07675339 -0.07236873
0003e0 18 58 9e 3d fc 77 d9 3d 8d 00 8d bd 81 0f c7 bd
       0.07731646 0.10618588 -0.06884871 -0.09719754
0003f0 a5 70 c6 bd 71 3d 0a 3e c6 36 23 3d aa 7d 11 bd
       -0.09689454 0.135 0.039847158 -0.035520233

arith.constant13 f4 [1, 3, 3, 64]
000000 d2 37 97 3b 46 42 d2 b9 17 70 12 3e ae 09 00 3e
       0.0046148086 -0.000401037 0.14300571 0.12503693
000010 3a 11 dd 3b ca df 09 be d8 bf d5 bd 73 49 f5 3b
       0.0067464383 -0.13464275 -0.10436982 0.0074855625
000020 2a 14 77 bc 33 16 ba bb 0a e4 d7 bb 55 a6 5c 3e
       -0.015080491 -0.005678916 -0.0065884637 0.21547826
000030 18 80 9c 3d 9c 3c 12 3e ae 2f bb bd e7 aa 2c 3b
       0.076416194 0.14280933 -0.091399536 0.0026346983
000040 2c 6d 8a 3b 4a cf 2b 3e 9b 18 60 3d 55 1d be 3d
       0.00422444 0.16778293 0.054710966 0.092829384
000050 89 3a 7c 3e f1 71 c3 bd 63 49 4a be 24 83 9c bc
       0.24631704 -0.09543217 -0.19754557 -0.019105501
000060 62 6c d4 3c f0 f5 e1 bc 24 9d f3 bd 08 14 4d 3c
       0.025930587 -0.027583092 -0.118952066 0.012516983
000070 56 13 4d bc d6 06 1d bc 86 6d 34 3d d0 06 5e bd
       -0.012516817 -0.009584149 0.044049762 -0.054205716
000080 02 dd 33 3d cc 2f ae bc 46 5b 40 bc 43 a5 32 3b
       0.04391194 -0.021263026 -0.011740511 0.0027259148
000090 e9 bf af 3e b6 4d 72 bc a2 5e 23 be fd fe 37 3e
       0.34326103 -0.014789036 -0.15954068 0.17968364
0000a0 22 8d e6 bd f9 e3 b9 bb b2 d6 0f bd 2f 7d 10 3d
       -0.11257388 -0.0056729284 -0.03511686 0.035275634
0000b0 42 c4 4d 3c aa 32 43 3e 3e e6 ab bc 08 80 5a 3e
       0.012558999 0.19062296 -0.020983811 0.21337903
0000c0 c2 29 da 3d b5 cd b7 bd 4a c9 8b 3e 43 b1 92 3e
       0.10652496 -0.089747824 0.2730201 0.28650865
0000d0 d1 18 c6 bc 1c 22 15 be 32 6a ef 3d 4a d4 a5 3d
       -0.024181755 -0.14563793 0.11690177 0.080971316
0000e0 f7 fe db 3d b6 8c 75 3c 21 c4 d2 3d 6d 95 7b 3b
       0.1074199 0.014987161 0.10291315 0.0038388625
0000f0 db 60 df bc 7d d0 91 bc fd 2a 71 3c 02 42 81 3d
       -0.027267864 -0.01779961 0.014719722 0.06311418
000100 a9 e9 c9 bc 41 55 fa 3b 7a de 10 bd 8f a6 76 3e
       -0.02464755 0.0076395576 -0.03536842 0.24086975
000110 a5 d8 88 bc 9e 88 11 bd 37 3b 1b 3c 15 07 b6 3d
       -0.016704867 -0.03553068 0.009474567 0.088880695
000120 46 25 99 3c 53 5f 97 bc 5b a2 92 bd 7d 4a b3 3e
       0.018694531 -0.018478071 -0.07159873 0.35017768
000130 50 98 1e 3f a0 41 b0 3e 99 7c 76 be 73 28 8c 3d
       0.6195116 0.34425068 -0.24070968 0.068436526
000140 fd b4 12 3f 5b 0f 27 be 53 dd 41 3e 5e c4 3e be
       0.57307416 -0.16314451 0.18932085 -0.18629596
000150 01 cf 15 3f df 9e a9 be df 82 61 3e ad df 85 be
       0.5851899 -0.33129022 0.2202258 -0.26147214
000160 0d bc 96 3d 23 96 7f 3d b1 7b 28 3e 5b 9b fe 3d
       0.073600866 0.06239904 0.16453435 0.124319755
000170 81 cf 8e bc 89 7e cc bd e2 1f 8b bd 64 f5 37 3d
       -0.01743293 -0.09985072 -0.067931905 0.044911757
000180 09 3b ae 3e 61 e1 2b be 21 4f 88 3b 1c 60 96 3c
       0.34029415 -0.16785194 0.0041598235 0.018356375
000190 03 98 9f 3d cc 95 c3 bb 30 3f 56 be 45 75 ca 3e
       0.07792666 -0.005968785 -0.20922542 0.39542595
0001a0 9d cb 1e 3d 95 94 2f 3d a1 87 8a bd b5 36 08 3d
       0.0387684 0.04286631 -0.067641504 0.033255298
0001b0 1a 83 16 bc 4b 66 19 be cc d5 4b bc cb c8 50 be
       -0.0091865305 -0.14980428 -0.01244111 -0.20389096
0001c0 d5 e3 2e 3e 21 be 8c 3e e0 ac 20 3f 68 38 da 3d
       0.17079099 0.27488807 0.62763786 0.1065529
0001d0 69 ce 2c be 89 a3 3a be f9 b7 83 be 7e 5e 2b 3e
       -0.16875614 -0.18226446 -0.25726297 0.16735265
0001e0 c3 1a 9d 39 63 9c aa 3d 99 94 0f 3e fc 72 00 3e
       0.00029965313 0.0833061 0.1402153 0.12543863
0001f0 71 06 de 3c a2 6d f4 bd ff d9 f3 3e 9a e7 87 3d
       0.02710268 -0.11934973 0.47627255 0.06635971
000200 58 be 45 bc 3d 4c 77 bc 1e 40 bb bc 01 de cf 3d
       -0.012069307 -0.01509386 -0.022857722 0.10149766
000210 82 ea 8d bc 58 5a 4d 3e 71 89 f4 bd 96 84 44 3d
       -0.017323736 0.20053995 -0.11940277 0.047978006
000220 0d ab c2 3b 0d a8 b4 bc 46 35 5b 3d ec 7c 5b 3e
       0.005940801 -0.02205279 0.053517602 0.21434373
000230 6b f6 d7 3d f9 6a 11 3e 87 d1 88 bd 1d 54 64 3d
       0.105450474 0.14200963 -0.06680589 0.05574428
000240 d0 8a ad 3e 7c f8 03 3e 10 ff e8 3c 64 e7 ae 3d
       0.33894968 0.12887758 0.028441936 0.08540228
000250 b7 cd 8d 3e 7c 0d c9 bd 1d 96 ac 3c 52 7d be bd
       0.2769601 -0.09817025 0.021067673 -0.09301247
000260 02 2b 20 3e 2d 96 96 3c aa e2 56 3d ac c6 d9 3b
       0.15641406 0.018382156 0.052462257 0.006645998
000270 8b 10 e5 bb a3 af ef bc 1f 2b a4 bc f9 8a 95 3c
       -0.0069904975 -0.029258555 -0.020040093 0.018254744
000280 1d 8a 5b 3e 74 dd b6 bd cb de 79 3b c3 f8 48 3d
       0.21439405 -0.089289576 0.003812718 0.049065363
000290 3f 01 51 3c 8d 0a a7 bc 5d 05 25 be 0f 48 79 3e
       0.012756645 -0.020390773 -0.16115327 0.24343894
0002a0 ce 80 0d be 7c f0 50 3d 97 ec 73 3c 15 65 be 3c
       -0.13818666 0.051010594 0.01488795 0.023241559
0002b0 04 4e 04 3c 36 fb 3c 3d 6f d7 b7 bc c4 84 fb bd
       0.008075241 0.04613801 -0.022441594 -0.122811824
0002c0 33 d8 b7 3d ea 2c 2d 3d 1e 9d e0 3d d2 c8 8f 3c
       0.089767836 0.04227916 0.10967468 0.017551813
0002d0 86 b8 91 3d 30 ff 02 bd 0d e6 07 3d 1b a7 16 3e
       0.07115273 -0.031981647 0.033178378 0.14712183
0002e0 03 4f 8c 3d 1c bf ee 3b f4 66 48 be 29 e3 a6 3d
       0.06851008 0.0072859656 -0.19570524 0.08148796
0002f0 6a e6 d1 3e 7e 3e 97 bd de 7b 1c 3d e8 76 72 3d
       0.40996104 -0.07384966 0.038204066 0.05919543
000300 aa 9d 6e 3c 1b 79 84 3c 77 56 c0 3e 32 31 48 3e
       0.014563957 0.016171029 0.37565967 0.19550017
000310 75 c4 9b bc 13 d5 48 be 8d 2f 26 be d7 74 e4 3d
       -0.019014576 -0.19612531 -0.16229077 0.11155098
000320 d2 54 7a bc e8 d4 16 bc 6c b5 bc 3e 84 14 e3 3d
       -0.015279012 -0.009206034 0.36857164 0.110878974
000330 53 84 19 3d b8 4f 38 3e 81 1d 11 be 21 df 0f 3e
       0.03747971 0.1799916 -0.14171411 0.1404996
000340 b6 d7 48 bd b7 3f 4d bd 85 5e 49 be a6 d6 25 bd
       -0.049033843 -0.05010959 -0.19664963 -0.040487908
000350 21 5a ec 3d 0e 4c fb bd 5e dd 4b be ed 44 2c be
       0.11540628 -0.12270366 -0.19908664 -0.16823168
000360 f8 45 08 bd b7 93 bd 3e 83 ea 55 bd 4c 20 68 3d
       -0.033269852 0.3702676 -0.0522256 0.056671426
000370 74 c4 97 bc b7 10 f7 3d 1c b3 04 3d 35 21 d6 bd
       -0.018526293 0.12063735 0.032397375 -0.104555525
000380 2d b0 5e bd e8 0e 7f 3e 56 5b 13 bc f9 31 3b 3d
       -0.054367233 0.2490803 -0.008993944 0.045701955
000390 c7 05 fc 3e 7d 1e 80 bc de fb 36 be 93 71 54 3e
       0.49223158 -0.015639538 -0.17869517 0.2074645
0003a0 6d 75 7d 3c 7f 9b 71 bc 44 12 a5 3d 22 d0 18 3c
       0.015469891 -0.014746546 0.080601245 0.0093269665
0003b0 cf 45 41 bc b4 3b 8e 3e 34 c4 91 bc 4b 4b 64 bd
       -0.011796429 0.27779925 -0.017793752 -0.055735867
0003c0 37 c7 80 3b a3 85 f4 bd 5d 4d 4a 3e f6 da 1b 3f
       0.0039299983 -0.11939552 0.19756074 0.6088098
0003d0 85 c1 78 3e 92 c8 e9 bd 21 11 fc bd d2 dc 3d 3e
       0.24292572 -0.11415209 -0.123079546 0.18541268
0003e0 45 18 13 bd 6a b6 9c 3d c6 3a 68 3c 41 66 26 3d
       -0.035911817 0.0765198 0.014174169 0.04062486
0003f0 7c 3d 8f bd 60 59 83 3d de e2 11 bc 37 20 9c 3d
       -0.06994149 0.06413531 -0.008904187 0.07623332

arith.constant14 f4 [12, 1, 1, 64]
000000 25 f4 38 bc bd 06 8d 3f 6b ec 50 3d 54 35 42 3c
       -0.011288677 1.1017681 0.051006716 0.011853535
000010 7e 1b f6 3a ec d5 3d 3e 0e f4 40 3d ad 72 c0 bd
       0.0018776504 0.18538636 0.04710775 -0.09396873
000020 c9 36 90 bb 62 55 77 ba 30 ba 69 bf 27 5f b9 bb
       -0.004401062 -0.0009435025 -0.91299725 -0.005657095
000030 16 ea 70 3c 67 74 93 bc 1e 8e 44 3b 47 0b f0 bc
       0.014704248 -0.01799984 0.0029991935 -0.029302252
000040 9f 46 70 3d be 95 4b 3d 54 bc 08 bd e1 b3 9c 3e
       0.0586611 0.049703352 -0.03338273 0.30605987
000050 13 36 cf bb db 19 c2 bd 9e 43 9f 3d 81 6d f2 bc
       -0.006323585 -0.09477588 0.07776569 -0.029593231
000060 d5 54 0b 3b 64 cb 17 be 29 8c 11 bd 0d c0 70 bc
       0.002126028 -0.14823681 -0.035534058 -0.014694226
000070 29 f8 c5 3b 1d b2 03 bd 65 bb 8f 3c 32 75 b2 3d
       0.006041546 -0.032152284 0.017545411 0.087137595
000080 ee ce 91 3c 17 de 2e bd df 43 8c ba 2e 27 75 3c
       0.017798867 -0.04269227 -0.001070138 0.014962954
000090 2c 4d 0e bd 48 f1 4f 3a 77 1a aa bd ba 77 e6 3c
       -0.034741566 0.0007932377 -0.08305829 0.028133262
0000a0 4e 6d ff bc ca ac 2a bf 37 53 80 3b 42 5f 3c 3d
       -0.03118005 -0.66669905 0.00391617 0.045989282
0000b0 92 33 4e bb 23 f3 af 3c 27 b8 69 ba 58 f2 ff 3c
       -0.0031463844 0.021478241 -0.00089156855 0.031243488
0000c0 90 34 ae bd 59 ad 6a bd 50 20 9b bc 72 93 f5 3c
       -0.08506119 -0.057294223 -0.018936306 0.029977534
0000d0 f6 76 12 bd 77 c9 63 bc 23 b1 c7 bd 02 5c 7c bc
       -0.03575798 -0.013903013 -0.09750583 -0.015402796
0000e0 a4 4a 5d bb 5c e0 52 bd b9 23 6b bd 18 1e 4f be
       -0.0033766413 -0.051483497 -0.057407115 -0.20226324
0000f0 da 9f 28 bd b9 72 cc bc 5e 37 9b bc 1b fa 81 3d
       -0.04116807 -0.024957048 -0.0189473 0.06346532
000100 26 23 97 3f 7c 2b 15 bd 00 81 89 bd a9 14 16 be
       1.1807601 -0.036418423 -0.06714058 -0.14656319
000110 e3 fb ca bb 9d b3 fc 3d 1d 74 59 bd 5e dd ba bd
       -0.006194578 0.12338946 -0.05308925 -0.09124254
000120 4a c4 8e bb 05 ae c7 3b 67 5c 57 3d c6 92 dc bd
       -0.0043568956 0.006093743 0.052578356 -0.10770182
000130 e7 e7 07 3f c0 50 3a bd 8f 89 90 bd 7b ef b4 3d
       0.5308823 -0.045487165 -0.07057487 0.0883474
000140 d0 fe 10 be cf 64 f4 bd 20 74 85 bd e1 22 25 bd
       -0.14159703 -0.1193329 -0.0651629 -0.040316466
000150 fb d3 a1 3d 5c 16 9c bc 4e 14 53 be fb 55 26 3d
       0.0790176 -0.01905363 -0.20613214 0.04060934
000160 07 94 5b bb b0 66 76 bd d7 22 86 3c d7 3a d2 be
       -0.003350498 -0.060156524 0.016374035 -0.41060516
000170 33 e9 e6 bb 1c 08 f1 bd e8 77 39 3f 1f b8 70 3c
       -0.0070468425 -0.11769125 0.7244859 0.014692335
000180 23 95 93 3a 4e 19 70 3d 35 0d cc bb f6 b9 20 bf
       0.0011259656 0.058617882 -0.0062271603 -0.62783754
000190 b5 6b 08 3d 63 e5 d9 3a 23 89 6f bd b1 0b 49 bc
       0.033305842 0.0016624149 -0.058480393 -0.012270854
0001a0 57 91 fa 3c f3 b7 d0 bd a1 fd be bd dd 76 17 be
       0.030586882 -0.101913355 -0.093257196 -0.14791436
0001b0 6b f9 ed bb 4c 7e b3 bd 2a 18 36 bc f0 2f ac 3d
       -0.007262399 -0.087643236 -0.01111416 0.08407581
0001c0 31 2c ac 3c b1 d6 96 bd cb 6d c6 bd 42 23 27 bc
       0.021017166 -0.07365168 -0.0968891 -0.010201277
0001d0 84 7f 81 3d 51 69 0c be 5d dd c9 bd 39 1b 66 3c
       0.0632315 -0.1371205 -0.09856675 0.014044576
0001e0 9f f9 51 bd 6d 50 1d 3d 3a b4 ff 3c 6f 26 09 bd
       -0.051263448 0.038406778 0.031213868 -0.03348392
0001f0 c4 a8 13 bc 50 d9 87 bb dc 14 86 bf d2 18 96 3e
       -0.009012405 -0.0041457787 -1.0475116 0.2931581
000200 8b c5 0a 3d 67 27 c6 3b 9d ba 14 be 63 fb d6 3c
       0.033879798 0.0060471776 -0.14524312 0.026242917
000210 09 70 11 bb 28 39 3f 3d 23 6e 8e be 1c 38 94 bd
       -0.0022192022 0.046685368 -0.27818403 -0.072372645
000220 3d 85 b4 bb 19 d7 0f b8 9c 03 95 3d 47 5e f2 3e
       -0.0055090473 -3.4294182e-05 0.07276079 0.47337553
000230 05 d6 4c bd 10 d2 cc be 60 4b 5c bf 5a 56 ba be
       -0.050008792 -0.40004015 -0.86052513 -0.36394006
000240 8f ad 38 3d ff ae d8 3d f1 48 e8 bd 46 c0 e4 3d
       0.045087393 0.10580253 -0.113420375 0.11169486
000250 9a 1a 23 bd 8b e2 39 be 96 49 05 be b4 a6 5e bf
       -0.03982029 -0.18152826 -0.13016352 -0.8697312
000260 66 3c 42 bd 2f a1 dd 3e 98 b1 72 bd f9 61 48 be
       -0.04742088 0.43287036 -0.059251398 -0.19568624
000270 2a ad 7b bb ff cd de bc db 5f 1f 3e 30 b4 60 bd
       -0.0038402774 -0.027197836 0.1556391 -0.05485934
000280 27 eb c8 3d e5 1d 2c 3e 5e 55 2d 3b 01 52 a2 3e
       0.09810477 0.16808279 0.0026448588 0.3170319
000290 0f ec fe bd 09 18 bd 3b 11 87 7c be ae a8 b0 3e
       -0.12447368 0.0057706875 -0.24660899 0.34503692
0002a0 65 d5 62 bf b8 f3 6b bc 4e 2c 0c be 0c 2f f5 3d
       -0.88606864 -0.014401369 -0.13688776 0.11971864
0002b0 e2 4b 2f bb 5f 54 9e 3e 6d d3 0e bc 54 c9 dd 3c
       -0.002674811 0.30923745 -0.0087174 0.02707354
0002c0 9c 34 5b be ad 32 19 be 0b ed e0 3d 63 18 12 bd
       -0.21406788 -0.14960738 0.10982712 -0.03566779
0002d0 6e 9f a9 bd 0e 4d cd be ab 3b c1 bd b2 be 59 be
       -0.08282362 -0.4009785 -0.09435209 -0.2126415
0002e0 3e 3e 0e be 24 dc 96 3e ae 3f 97 bd ad 0b 10 3e
       -0.13890931 0.2946483 -0.07385193 0.14066954
0002f0 17 2c 08 bd a2 dd 7f 3d 50 6c 84 bc 0a 6f 11 3f
       -0.033245172 0.062467225 -0.016164929 0.5681006
000300 8c 3b 6b 3d 16 ae ba 3c 23 e3 83 bc 9a fd 00 3a
       0.057429835 0.022788089 -0.016099518 0.0004920602
000310 2a b3 a8 3a 07 01 ba 3d c1 af 83 be 1b d1 b4 3c
       0.0012870778 0.09082227 -0.25720027 0.022072366
000320 af 20 33 bb 8e 93 02 bc 94 3c 03 3b 2f 1f fc 3e
       -0.0027332713 -0.00796975 0.002002512 0.4924254
000330 0c 80 5c be 1f 25 ab 3e 3f 87 57 bf 9b b1 04 bf
       -0.21533221 0.3342676 -0.84190744 -0.51833504
000340 cd 3e 44 3d 1a 58 38 3d e9 01 90 bd 2a ae 88 3c
       0.047911454 0.045005895 -0.07031614 0.01668461
000350 b9 c0 fe bc 89 ef 07 3c ec e6 0f 3e 9b 32 45 bf
       -0.031097757 0.008296856 0.14052933 -0.7703034
000360 fd 8c 7e 3d 03 4a 9b 3d b0 b9 1f 3b 0d 08 e4 be
       0.062146176 0.07582476 0.0024372153 -0.44537392
000370 3a 98 91 bb 3c 30 47 bd 66 63 a5 3e cd f3 9a bc
       -0.0044431956 -0.048629984 0.32302397 -0.018915081
000380 51 00 42 3d 05 21 35 be 90 9b c6 bb 3b cd db 3e
       0.047363583 -0.17688377 -0.006061025 0.42930016
000390 50 ef b9 bc cd e8 df 3b a9 83 a1 3c ce 34 18 bf
       -0.02269712 0.006833172 0.0197161 -0.59455574
0003a0 a6 bb 64 bf 65 84 63 3d 0c 98 20 bc b3 de 16 3e
       -0.8934883 0.055546183 -0.009801876 0.1473339
0003b0 1f ef e4 3b db 2c 1a 3e 47 be 3a 3b 1e d4 84 3d
       0.0069865133 0.15056174 0.0028494762 0.06485771
0003c0 2b fb 62 bd ff 10 81 3d d5 50 02 3e b8 3f 05 be
       -0.055415314 0.0630207 0.12726147 -0.13012588
0003d0 dc 0d f6 bb 74 63 82 be 40 ee 38 3d 05 27 dd 3d
       -0.0075089764 -0.25466502 0.045149088 0.10798458
0003e0 fe 5b e3 3d e7 60 f4 3e 66 c4 8a 3c 18 a6 e5 bc
       0.111015305 0.4773018 0.016939353 -0.028033301
0003f0 19 98 3e bd 1a bc 99 3d 7c 11 60 3c 2b 30 11 3f
       -0.04653177 0.07506581 0.013676044 0.56714123

arith.constant15 f4 [4, 1, 1, 128]
000000 ed 16 8b 3d 3d 71 67 bd d3 4d 97 3b f1 05 9c bb
       0.06791482 -0.056504477 0.0046174317 -0.0047614505
000010 2f 82 0e bd a3 e8 b1 3d 7e 42 68 bd 6d f8 1f bc
       -0.03479212 0.0868695 -0.056704037 -0.009763819
000020 09 c9 b4 3a 0d ee 03 bc 3a dd a2 3c 42 75 53 be
       0.0013792823 -0.008052361 0.01988088 -0.20650199
000030 90 3d af 3b 51 28 a9 bd 5e 33 af bb 71 8b 35 3b
       0.005347915 -0.08259643 -0.0053466996 0.0027701522
000040 17 09 1e 3c 0e 45 53 be 0e 13 03 bd 9d dd 81 be
       0.009645722 -0.20631811 -0.032000594 -0.2536439
000050 49 12 67 3d 6c b5 03 3b c3 c9 35 ba ae f1 50 3d
       0.056413922 0.002009715 -0.0006934667 0.051011734
000060 2d 03 45 3d 12 16 32 3d c3 0f 93 3e 00 52 e5 bd
       0.04809873 0.04347808 0.28722963 -0.11197281
000070 d0 ff 14 3e 39 79 42 3d a9 69 57 3d cf e2 c3 bb
       0.1455071 0.04747889 0.052591 -0.0059779654
000080 5d 36 83 3e 7e d2 42 3a 6d 47 42 3c 85 0f c2 bc
       0.25627413 0.00074318785 0.01185785 -0.02368904
000090 2d e2 a1 3b ac 19 d2 bc a6 f2 38 3d b2 40 33 3c
       0.0049402923 -0.025647007 0.045153283 0.0109407175
0000a0 f7 c3 0c 3d e2 d0 a8 3d 86 5f 87 3c 95 c7 5c 3b
       0.034366574 0.08242966 0.016525041 0.0033688296
0000b0 06 00 98 3d ca f3 d8 bc c6 2c 7f bd e7 89 a0 bb
       0.074218795 -0.026483435 -0.06229856 -0.0048992517
0000c0 62 e9 0b 3b 31 06 4d bc e2 2a a2 bc 1e 27 9c 3c
       0.0021348824 -0.012513683 -0.019795839 0.019061621
0000d0 af b7 33 3d 6b 22 18 3d fe 89 a0 3e 02 da 69 bc
       0.043876346 0.0371422 0.3135528 -0.0142731685
0000e0 57 64 a7 3b b2 d3 fc be 90 a5 40 3c 38 ef 7d bc
       0.005108397 -0.4938026 0.011758223 -0.015498929
0000f0 1c 65 1c 3d 40 e0 57 3c d3 4e 16 bd 68 b1 ef 3d
       0.038182363 0.013176024 -0.036696266 0.117037594
000100 15 e5 3c bd b1 34 4a 3c c7 fd a2 bc be ba e0 3c
       -0.046116907 0.012341664 -0.019896401 0.027432796
000110 7a 8b 05 bb 3c 6b df be 16 44 f9 3d 46 68 da 3c
       -0.0020377324 -0.436365 0.121711895 0.02666105
000120 14 a0 25 3d de c7 c9 3b 47 90 02 3d a0 34 b3 3d
       0.040435866 0.006157859 0.031875875 0.08750272
000130 d4 f2 3e 39 5c 59 88 3c bd 67 83 3d 2b 93 a6 3b
       0.00018210273 0.016644172 0.06416271 0.0050834618
000140 1b 9a a5 bc 69 57 43 bb 36 2e 45 3d ee c1 35 3b
       -0.020215085 -0.002980674 0.048139773 0.0027734
000150 09 81 98 3e ef cb 95 3e a5 7a 2b 3c 00 f4 93 3c
       0.29785946 0.2925715 0.010466252 0.018060684
000160 cf 7b 2c 3c 31 ee cc bb 91 e1 d8 39 6a c4 82 3c
       0.010527565 -0.0062539806 0.0004136679 0.015962798
000170 0f 9a cc 3d c2 74 ee 3b a7 06 2f 3d a7 9f 5e 3d
       0.09990322 0.007277102 0.042730954 0.054351475
000180 f1 c0 a4 3e 22 55 8a 3d 8d 00 33 3d b2 c8 c3 b8
       0.32178453 0.06754519 0.043701697 -9.335707e-05
000190 0c f7 77 3b 91 b6 b0 3b 37 0b 28 3d fb 63 c6 ba
       0.003783646 0.0053928574 0.04102632 -0.0015135998
0001a0 62 33 7b 3d f3 64 38 3b 85 1d 22 bb eb cd 36 3b
       0.0613283 0.0028136342 -0.0024736833 0.0027893733
0001b0 c3 bd 9a bb 2c 7e 75 3e 63 09 93 39 fb 1a f1 be
       -0.0047223284 0.23973912 0.0002804502 -0.47090897
0001c0 97 bf 91 b9 29 c0 80 3b 79 54 a9 3b a5 5a 5b b8
       -0.000277993 0.0039291573 0.0051675406 -5.2298088e-05
0001d0 c7 82 c8 3b b7 cc 5d bb ee e4 23 3e e6 a8 ad 3c
       0.0061191055 -0.0033843943 0.16005298 0.021198701
0001e0 0f e7 9c 3b 2f cc 6e bb ca dc d8 bd 71 fe b0 3c
       0.0047882865 -0.003643762 -0.10588987 0.021605702
0001f0 df cd 39 bc f2 0e ea 3b 9e 35 86 3c 27 c2 c6 be
       -0.011340587 0.007142895 0.016382989 -0.3882
000200 b6 51 87 bd 96 b7 6c 3d b2 df f2 39 b6 d5 85 3b
       -0.06607382 0.05779227 0.00046324503 0.004084314
000210 b4 1e 27 3d aa 17 b3 bd bb 57 67 3d 4e 29 0d 3c
       0.040800765 -0.08744748 0.05648015 0.008615805
000220 46 97 1b 3b db c9 87 3c fd a6 a7 bc 04 f2 54 3e
       0.002374129 0.016575744 -0.020465368 0.20795447
000230 f1 35 2b bb 1a ef 9b 3d 27 94 73 3b c5 34 18 3b
       -0.002612468 0.076139644 0.0037167163 0.0023224812
000240 1d dd e5 bb 07 27 4d 3e 31 b2 2a 3d 45 bc 7d 3e
       -0.007014884 0.20034419 0.041673843 0.2477885
000250 f3 f3 78 bd 69 e7 f1 39 9e 09 2a bb bb 73 60 bd
       -0.060779523 0.00046139516 -0.0025945674 -0.05479787
000260 1a 70 39 bd f7 af 3b bd 28 b8 95 be 35 ae d8 3d
       -0.045272924 -0.04582211 -0.29242063 0.10580102
000270 3f 15 1a be ff c9 40 bd bb 6b 58 bd 83 23 62 3a
       -0.15047167 -0.04706764 -0.052837115 0.00086265075
000280 e7 2e 83 be 48 68 45 bb 50 91 79 bc c7 8e d8 3c
       -0.2562172 -0.003012197 -0.015232399 0.026435269
000290 b9 3b 90 bb fa 23 0d 3d ff ec 49 bd 95 f2 17 bc
       -0.0044016507 0.034458138 -0.049298283 -0.009274145
0002a0 52 cb f7 bc 73 7d ab bd 85 1d 97 bc 97 77 b3 bb
       -0.030248318 -0.08373537 -0.018446693 -0.0054769027
0002b0 4b 1d 95 bd fc f8 09 3d 4c 79 88 3d 44 13 c1 bb
       -0.07280978 0.033684716 0.066637605 -0.005892189
0002c0 0b ea 58 bb 7a 22 45 3c f6 d3 a7 3c 50 fc 5b bc
       -0.0033098485 0.012032146 0.020486813 -0.013426855
0002d0 94 fc 14 bd 12 36 01 bd 60 29 9e be 1b 6d a1 3b
       -0.03637369 -0.031545706 -0.30890942 0.0049263365
0002e0 97 bc 2f bc 23 00 fe 3e b1 96 a7 bc d3 a3 96 3c
       -0.010726116 0.4960948 -0.020457597 0.018388664
0002f0 6d b8 2e bd c8 cd 31 bc 43 3b 0c 3d 62 00 ff bd
       -0.04265635 -0.010852285 0.034236204 -0.12451245
000300 1e 31 42 3d a7 f0 47 bc 7a e8 a8 3c d2 e0 e5 bc
       0.047410123 -0.012203372 0.020618666 -0.028061304
000310 29 ec c6 3a c7 a3 de 3e 9b 4b f7 bd ac 95 b1 bc
       0.0015176582 0.43484327 -0.120749675 -0.021677814
000320 9d 64 2f bd a8 df 77 bb 87 92 13 bd 90 28 a7 bd
       -0.04282056 -0.0037822518 -0.03602841 -0.081620336
000330 c3 11 95 bb 24 43 98 bc e0 80 6f bd 89 d4 89 3b
       -0.0045492365 -0.018586703 -0.058472514 0.0042062444
000340 52 ad b1 3c 95 97 00 bc 15 75 4a bd f9 bb 62 3a
       0.02168909 -0.00784864 -0.049428064 0.0008649226
000350 b7 88 96 be 5a 5c 94 be ce 76 a1 bb 28 8a 96 bc
       -0.2940118 -0.2897671 -0.0049274927 -0.018376425
000360 8b 89 23 bc 6b 53 46 3c 18 bc 1c ba df 23 c1 bc
       -0.009981523 0.012104849 -0.0005978956 -0.023576675
000370 90 10 d2 bd 9d 7c d6 3a dc a7 36 bd 22 f7 37 bd
       -0.10257065 0.0016364042 -0.044593677 -0.04491342
000380 78 5e a6 be b2 35 90 bd bb ab 24 bd fc 4f a4 ba
       -0.3249395 -0.070414916 -0.040202837 -0.0012536044
000390 b3 62 21 ba 11 77 c2 ba 7f 58 4a bd db 65 e7 ba
       -0.000615637 -0.001483651 -0.049400803 -0.0017654257
0003a0 71 8a 88 bd 81 a1 a0 3a 79 c2 b7 bb 4c 22 ce 3a
       -0.066670306 0.0012255163 -0.0056078997 0.0015726774
0003b0 1f f1 a8 bb 06 9d 71 be e8 19 bd ba 97 2c ee 3e
       -0.005155697 -0.23595056 -0.0014427276 0.46518394
0003c0 f3 31 33 bb 49 bb c4 3b ed d5 a2 bb af cf f0 3a
       -0.0027343004 0.0060037714 -0.0049693496 0.0018372441
0003d0 32 82 96 bb 89 3e 52 ba 5f dd 27 be 12 17 ab bc
       -0.004593157 -0.0008020183 -0.1639304 -0.020885024
0003e0 8d 23 33 bc 40 1d 9e 3b 3e a7 d2 3d af e0 ca bc
       -0.010933769 0.004825264 0.10285805 -0.02476534
0003f0 f4 f4 1d 3c 80 49 50 bb fa cb 5e bc 38 e2 c7 3e
       0.009640921 -0.003178209 -0.0135984365 0.3903978
